…
I0503 21:33:23.930277 2036690944 net.cpp:49] Initializing net from parameters: 
name: "KSparseAutoencoder"
state {
  phase: TRAIN
}
layer {
  name: "data"
  type: "Data"
  top: "data"
  include {
    phase: TRAIN
  }
  transform_param {
    scale: 0.001
    mean_file: "/Users/tianchuliang/Documents/GT_Acad/CSE6240Spring16/tliang37-project2/data/Train/train_mean.binaryproto"
  }
  data_param {
    source: "/Users/tianchuliang/Documents/GT_Acad/CSE6240Spring16/tliang37-project2/data/Train/fungus_person_train_lmdb"
    batch_size: 1
    backend: LMDB
  }
}
layer {
  name: "flatdata"
  type: "Flatten"
  bottom: "data"
  top: "flatdata"
}
layer {
  name: "encode1"
  type: "InnerProduct"
  bottom: "data"
  top: "encode1"
  param {
    lr_mult: 20
    decay_mult: 1
  }
  param {
    lr_mult: 20
    decay_mult: 0
  }
  inner_product_param {
    num_output: 2000
    weight_filler {
      type: "gaussian"
      std: 1
      sparse: 15
    }
    bias_filler {
      type: "constant"
      value: 0
    }
  }
}
layer {
  name: "encode1neuron"
  type: "Sigmoid"
  bottom: "encode1"
  top: "encode1neuron"
}
layer {
  name: "decode1"
  type: "InnerProduct"
  bottom: "encode1neuron"
  top: "decode1"
  param {
    lr_mult: 20
    decay_mult: 1
  }
  param {
    lr_mult: 20
    decay_mult: 0
  }
  inner_product_param {
    num_output: 16384
    weight_filler {
      type: "gaussian"
      std: 1
      sparse: 15
    }
    bias_filler {
      type: "constant"
      value: 0
    }
  }
}
layer {
  name: "decode1neuron"
  type: "Sigmoid"
  bottom: "decode1"
  top: "decode1neuron"
}
layer {
  name: "loss"
  type: "EuclideanLoss"
  bottom: "decode1neuron"
  bottom: "flatdata"
  top: "l2_error"
  loss_weight: 1
}
I0503 21:33:23.930454 2036690944 layer_factory.hpp:77] Creating layer data
I0503 21:33:23.936442 2036690944 net.cpp:91] Creating Layer data
I0503 21:33:23.936478 2036690944 net.cpp:399] data -> data
I0503 21:33:23.936513 2036690944 data_transformer.cpp:25] Loading mean file from: /Users/tianchuliang/Documents/GT_Acad/CSE6240Spring16/tliang37-project2/data/Train/train_mean.binaryproto
I0503 21:33:23.936630 528384 db_lmdb.cpp:38] Opened lmdb /Users/tianchuliang/Documents/GT_Acad/CSE6240Spring16/tliang37-project2/data/Train/fungus_person_train_lmdb
I0503 21:33:23.936905 2036690944 data_layer.cpp:41] output data size: 1,1,128,128
I0503 21:33:23.937068 2036690944 net.cpp:141] Setting up data
I0503 21:33:23.937077 2036690944 net.cpp:148] Top shape: 1 1 128 128 (16384)
I0503 21:33:23.937088 2036690944 net.cpp:156] Memory required for data: 65536
I0503 21:33:23.937099 2036690944 layer_factory.hpp:77] Creating layer data_data_0_split
I0503 21:33:23.937113 2036690944 net.cpp:91] Creating Layer data_data_0_split
I0503 21:33:23.937119 2036690944 net.cpp:425] data_data_0_split <- data
I0503 21:33:23.937127 2036690944 net.cpp:399] data_data_0_split -> data_data_0_split_0
I0503 21:33:23.937140 2036690944 net.cpp:399] data_data_0_split -> data_data_0_split_1
I0503 21:33:23.937152 2036690944 net.cpp:141] Setting up data_data_0_split
I0503 21:33:23.937160 2036690944 net.cpp:148] Top shape: 1 1 128 128 (16384)
I0503 21:33:23.937167 2036690944 net.cpp:148] Top shape: 1 1 128 128 (16384)
I0503 21:33:23.937175 2036690944 net.cpp:156] Memory required for data: 196608
I0503 21:33:23.937206 2036690944 layer_factory.hpp:77] Creating layer flatdata
I0503 21:33:23.937216 2036690944 net.cpp:91] Creating Layer flatdata
I0503 21:33:23.937222 2036690944 net.cpp:425] flatdata <- data_data_0_split_0
I0503 21:33:23.937228 2036690944 net.cpp:399] flatdata -> flatdata
I0503 21:33:23.937238 2036690944 net.cpp:141] Setting up flatdata
I0503 21:33:23.937245 2036690944 net.cpp:148] Top shape: 1 16384 (16384)
I0503 21:33:23.937252 2036690944 net.cpp:156] Memory required for data: 262144
I0503 21:33:23.937258 2036690944 layer_factory.hpp:77] Creating layer encode1
I0503 21:33:23.937269 2036690944 net.cpp:91] Creating Layer encode1
I0503 21:33:23.937275 2036690944 net.cpp:425] encode1 <- data_data_0_split_1
I0503 21:33:23.937296 2036690944 net.cpp:399] encode1 -> encode1
I0503 21:33:24.527937 2036690944 net.cpp:141] Setting up encode1
I0503 21:33:24.527963 2036690944 net.cpp:148] Top shape: 1 2000 (2000)
I0503 21:33:24.527971 2036690944 net.cpp:156] Memory required for data: 270144
I0503 21:33:24.527981 2036690944 layer_factory.hpp:77] Creating layer encode1neuron
I0503 21:33:24.527999 2036690944 net.cpp:91] Creating Layer encode1neuron
I0503 21:33:24.528004 2036690944 net.cpp:425] encode1neuron <- encode1
I0503 21:33:24.528009 2036690944 net.cpp:399] encode1neuron -> encode1neuron
I0503 21:33:24.528064 2036690944 net.cpp:141] Setting up encode1neuron
I0503 21:33:24.528090 2036690944 net.cpp:148] Top shape: 1 2000 (2000)
I0503 21:33:24.528116 2036690944 net.cpp:156] Memory required for data: 278144
I0503 21:33:24.528131 2036690944 layer_factory.hpp:77] Creating layer decode1
I0503 21:33:24.528154 2036690944 net.cpp:91] Creating Layer decode1
I0503 21:33:24.528162 2036690944 net.cpp:425] decode1 <- encode1neuron
I0503 21:33:24.528172 2036690944 net.cpp:399] decode1 -> decode1
I0503 21:33:25.086356 2036690944 net.cpp:141] Setting up decode1
I0503 21:33:25.086385 2036690944 net.cpp:148] Top shape: 1 16384 (16384)
I0503 21:33:25.086393 2036690944 net.cpp:156] Memory required for data: 343680
I0503 21:33:25.086407 2036690944 layer_factory.hpp:77] Creating layer decode1neuron
I0503 21:33:25.086421 2036690944 net.cpp:91] Creating Layer decode1neuron
I0503 21:33:25.086427 2036690944 net.cpp:425] decode1neuron <- decode1
I0503 21:33:25.086436 2036690944 net.cpp:399] decode1neuron -> decode1neuron
I0503 21:33:25.086450 2036690944 net.cpp:141] Setting up decode1neuron
I0503 21:33:25.086457 2036690944 net.cpp:148] Top shape: 1 16384 (16384)
I0503 21:33:25.086464 2036690944 net.cpp:156] Memory required for data: 409216
I0503 21:33:25.086470 2036690944 layer_factory.hpp:77] Creating layer loss
I0503 21:33:25.086478 2036690944 net.cpp:91] Creating Layer loss
I0503 21:33:25.086484 2036690944 net.cpp:425] loss <- decode1neuron
I0503 21:33:25.086491 2036690944 net.cpp:425] loss <- flatdata
I0503 21:33:25.086498 2036690944 net.cpp:399] loss -> l2_error
…
